…
    (layers): Sequential(
      (0): Linear(in_features=2048, out_features=4096, bias=False)
      (1): BatchNorm1d(4096, eps=1e-05, momentum=0.1, affine=True, track_running_stats=True)
      (2): ReLU()
      (3): Linear(in_features=4096, out_features=256, bias=True)
    )
  )
)

===============================================================================================
Layer (type:depth-idx)                        Output Shape              Param #
===============================================================================================
BYOL                                          [1, 256]                  32,953,664
├─Sequential: 1-1                             [1, 2048, 1, 1]           --
│    └─Conv2d: 2-1                            [1, 64, 80, 120]          9,408
│    └─BatchNorm2d: 2-2                       [1, 64, 80, 120]          128
│    └─ReLU: 2-3                              [1, 64, 80, 120]          --
│    └─MaxPool2d: 2-4                         [1, 64, 40, 60]           --
│    └─Sequential: 2-5                        [1, 256, 40, 60]          --
│    │    └─Bottleneck: 3-1                   [1, 256, 40, 60]          75,008
│    │    └─Bottleneck: 3-2                   [1, 256, 40, 60]          70,400
│    │    └─Bottleneck: 3-3                   [1, 256, 40, 60]          70,400
│    └─Sequential: 2-6                        [1, 512, 20, 30]          --
│    │    └─Bottleneck: 3-4                   [1, 512, 20, 30]          379,392
│    │    └─Bottleneck: 3-5                   [1, 512, 20, 30]          280,064
│    │    └─Bottleneck: 3-6                   [1, 512, 20, 30]          280,064
│    │    └─Bottleneck: 3-7                   [1, 512, 20, 30]          280,064
│    └─Sequential: 2-7                        [1, 1024, 10, 15]         --
│    │    └─Bottleneck: 3-8                   [1, 1024, 10, 15]         1,512,448
│    │    └─Bottleneck: 3-9                   [1, 1024, 10, 15]         1,117,184
│    │    └─Bottleneck: 3-10                  [1, 1024, 10, 15]         1,117,184
│    │    └─Bottleneck: 3-11                  [1, 1024, 10, 15]         1,117,184
│    │    └─Bottleneck: 3-12                  [1, 1024, 10, 15]         1,117,184
│    │    └─Bottleneck: 3-13                  [1, 1024, 10, 15]         1,117,184
│    └─Sequential: 2-8                        [1, 2048, 5, 8]           --
│    │    └─Bottleneck: 3-14                  [1, 2048, 5, 8]           6,039,552
│    │    └─Bottleneck: 3-15                  [1, 2048, 5, 8]           4,462,592
│    │    └─Bottleneck: 3-16                  [1, 2048, 5, 8]           4,462,592
│    └─AdaptiveAvgPool2d: 2-9                 [1, 2048, 1, 1]           --
├─BYOLProjectionHead: 1-2                     [1, 256]                  --
│    └─Sequential: 2-10                       [1, 256]                  --
│    │    └─Linear: 3-17                      [1, 4096]                 8,388,608
│    │    └─BatchNorm1d: 3-18                 [1, 4096]                 8,192
│    │    └─ReLU: 3-19                        [1, 4096]                 --
│    │    └─Linear: 3-20                      [1, 256]                  1,048,832
├─BYOLPredictionHead: 1-3                     [1, 256]                  --
│    └─Sequential: 2-11                       [1, 256]                  --
│    │    └─Linear: 3-21                      [1, 4096]                 1,048,576
│    │    └─BatchNorm1d: 3-22                 [1, 4096]                 8,192
│    │    └─ReLU: 3-23                        [1, 4096]                 --
│    │    └─Linear: 3-24                      [1, 256]                  1,048,832
===============================================================================================
Total params: 68,012,928
Trainable params: 35,059,264
Non-trainable params: 32,953,664
Total mult-adds (G): 3.18
===============================================================================================
Input size (MB): 0.46
Forward/backward pass size (MB): 136.65
Params size (MB): 140.24
Estimated Total Size (MB): 277.35
…
