…
  (projection_head_momentum): BYOLProjectionHead(
    (layers): Sequential(
      (0): Linear(in_features=512, out_features=1024, bias=False)
      (1): BatchNorm1d(1024, eps=1e-05, momentum=0.1, affine=True, track_running_stats=True)
      (2): ReLU()
      (3): Linear(in_features=1024, out_features=256, bias=True)
    )
  )
)

===============================================================================================
Layer (type:depth-idx)                        Output Shape              Param #
===============================================================================================
BYOL                                          [1, 256]                  11,965,248
├─Sequential: 1-1                             [1, 512, 1, 1]            --
│    └─Conv2d: 2-1                            [1, 64, 112, 112]         9,408
│    └─BatchNorm2d: 2-2                       [1, 64, 112, 112]         128
│    └─ReLU: 2-3                              [1, 64, 112, 112]         --
│    └─MaxPool2d: 2-4                         [1, 64, 56, 56]           --
│    └─Sequential: 2-5                        [1, 64, 56, 56]           --
│    │    └─BasicBlock: 3-1                   [1, 64, 56, 56]           73,984
│    │    └─BasicBlock: 3-2                   [1, 64, 56, 56]           73,984
│    └─Sequential: 2-6                        [1, 128, 28, 28]          --
│    │    └─BasicBlock: 3-3                   [1, 128, 28, 28]          230,144
│    │    └─BasicBlock: 3-4                   [1, 128, 28, 28]          295,424
│    └─Sequential: 2-7                        [1, 256, 14, 14]          --
│    │    └─BasicBlock: 3-5                   [1, 256, 14, 14]          919,040
│    │    └─BasicBlock: 3-6                   [1, 256, 14, 14]          1,180,672
│    └─Sequential: 2-8                        [1, 512, 7, 7]            --
│    │    └─BasicBlock: 3-7                   [1, 512, 7, 7]            3,673,088
│    │    └─BasicBlock: 3-8                   [1, 512, 7, 7]            4,720,640
│    └─AdaptiveAvgPool2d: 2-9                 [1, 512, 1, 1]            --
├─BYOLProjectionHead: 1-2                     [1, 256]                  --
│    └─Sequential: 2-10                       [1, 256]                  --
│    │    └─Linear: 3-9                       [1, 1024]                 524,288
│    │    └─BatchNorm1d: 3-10                 [1, 1024]                 2,048
│    │    └─ReLU: 3-11                        [1, 1024]                 --
│    │    └─Linear: 3-12                      [1, 256]                  262,400
├─BYOLPredictionHead: 1-3                     [1, 256]                  --
│    └─Sequential: 2-11                       [1, 256]                  --
│    │    └─Linear: 3-13                      [1, 1024]                 262,144
│    │    └─BatchNorm1d: 3-14                 [1, 1024]                 2,048
│    │    └─ReLU: 3-15                        [1, 1024]                 --
│    │    └─Linear: 3-16                      [1, 256]                  262,400
===============================================================================================
Total params: 24,457,088
Trainable params: 12,491,840
Non-trainable params: 11,965,248
Total mult-adds (G): 1.81
===============================================================================================
Input size (MB): 0.60
Forward/backward pass size (MB): 39.78
Params size (MB): 49.97
Estimated Total Size (MB): 90.35
…
